…
'uniform4', rank=-1, resume='', resume_quantize=False, save_path='checkpoints/imagenet/test/', seed=None, start_epoch=0, teacher_arch='resnet101', temperature=6, transfer_param=False, weight_decay=0.0001, weight_percentile=0, workers=4, world_size=-1)
03-Mar-22 09:09:00 - => creating PyTorchCV model 'resnet20_unfold'
03-Mar-22 09:09:00 - match all modules defined in bit_config: False
03-Mar-22 09:09:00 - Q_ResNet20_unfold(
  (quant_input): QuantAct(activation_bit=8, full_precision_flag=False, quant_mode=symmetric, Act_min: 0.00, Act_max: 0.00)
  (quant_init_block_conv): (QuantConv2d(
    (conv): Conv2d(3, 16, kernel_size=(3, 3), stride=(1, 1), padding=(1, 1), bias=False)
  ) weight_bit=4, full_precision_flag=False, quant_mode=symmetric)
  (quant_init_block_bn): QuantBn(
    (bn): BatchNorm2d(16, eps=1e-05, momentum=0.99, affine=True, track_running_stats=True)
  )
  (quant_act_int32): QuantAct(activation_bit=16, full_precision_flag=False, quant_mode=symmetric, Act_min: 0.00, Act_max: 0.00)
  (act): ReLU()
  (stage1.unit1): Q_ResBlockBn_unfold(
    (quant_act): QuantAct(activation_bit=4, full_precision_flag=False, quant_mode=asymmetric, Act_min: 0.00, Act_max: 0.00)
    (quant_conv1): (QuantConv2d(
      (conv): Conv2d(16, 16, kernel_size=(3, 3), stride=(1, 1), padding=(1, 1), bias=False)
    ) weight_bit=4, full_precision_flag=False, quant_mode=symmetric)
    (quant_bn1): QuantBn(
      (bn): BatchNorm2d(16, eps=1e-05, momentum=0.99, affine=True, track_running_stats=True)
    )
    (quant_act1): QuantAct(activation_bit=4, full_precision_flag=False, quant_mode=asymmetric, Act_min: 0.00, Act_max: 0.00)
    (quant_conv2): (QuantConv2d(
      (conv): Conv2d(16, 16, kernel_size=(3, 3), stride=(1, 1), padding=(1, 1), bias=False)
    ) weight_bit=4, full_precision_flag=False, quant_mode=symmetric)
    (quant_bn2): QuantBn(
      (bn): BatchNorm2d(16, eps=1e-05, momentum=0.99, affine=True, track_running_stats=True)
    )
    (quant_act_int32): QuantAct(activation_bit=16, full_precision_flag=False, quant_mode=symmetric, Act_min: 0.00, Act_max: 0.00)
  )
  (stage1.unit2): Q_ResBlockBn_unfold(
    (quant_act): QuantAct(activation_bit=4, full_precision_flag=False, quant_mode=asymmetric, Act_min: 0.00, Act_max: 0.00)
    (quant_conv1): (QuantConv2d(
      (conv): Conv2d(16, 16, kernel_size=(3, 3), stride=(1, 1), padding=(1, 1), bias=False)
    ) weight_bit=4, full_precision_flag=False, quant_mode=symmetric)
    (quant_bn1): QuantBn(
      (bn): BatchNorm2d(16, eps=1e-05, momentum=0.99, affine=True, track_running_stats=True)
    )
    (quant_act1): QuantAct(activation_bit=4, full_precision_flag=False, quant_mode=asymmetric, Act_min: 0.00, Act_max: 0.00)
    (quant_conv2): (QuantConv2d(
      (conv): Conv2d(16, 16, kernel_size=(3, 3), stride=(1, 1), padding=(1, 1), bias=False)
    ) weight_bit=4, full_precision_flag=False, quant_mode=symmetric)
    (quant_bn2): QuantBn(
      (bn): BatchNorm2d(16, eps=1e-05, momentum=0.99, affine=True, track_running_stats=True)
    )
    (quant_act_int32): QuantAct(activation_bit=16, full_precision_flag=False, quant_mode=symmetric, Act_min: 0.00, Act_max: 0.00)
  )
  (stage1.unit3): Q_ResBlockBn_unfold(
    (quant_act): QuantAct(activation_bit=4, full_precision_flag=False, quant_mode=asymmetric, Act_min: 0.00, Act_max: 0.00)
    (quant_conv1): (QuantConv2d(
      (conv): Conv2d(16, 16, kernel_size=(3, 3), stride=(1, 1), padding=(1, 1), bias=False)
    ) weight_bit=4, full_precision_flag=False, quant_mode=symmetric)
    (quant_bn1): QuantBn(
      (bn): BatchNorm2d(16, eps=1e-05, momentum=0.99, affine=True, track_running_stats=True)
    )
    (quant_act1): QuantAct(activation_bit=4, full_precision_flag=False, quant_mode=asymmetric, Act_min: 0.00, Act_max: 0.00)
    (quant_conv2): (QuantConv2d(
      (conv): Conv2d(16, 16, kernel_size=(3, 3), stride=(1, 1), padding=(1, 1), bias=False)
    ) weight_bit=4, full_precision_flag=False, quant_mode=symmetric)
    (quant_bn2): QuantBn(
      (bn): BatchNorm2d(16, eps=1e-05, momentum=0.99, affine=True, track_running_stats=True)
    )
    (quant_act_int32): QuantAct(activation_bit=16, full_precision_flag=False, quant_mode=symmetric, Act_min: 0.00, Act_max: 0.00)
  )
  (stage2.unit1): Q_ResBlockBn_unfold(
    (quant_act): QuantAct(activation_bit=4, full_precision_flag=False, quant_mode=asymmetric, Act_min: 0.00, Act_max: 0.00)
    (quant_conv1): (QuantConv2d(
      (conv): Conv2d(16, 32, kernel_size=(3, 3), stride=(2, 2), padding=(1, 1), bias=False)
    ) weight_bit=4, full_precision_flag=False, quant_mode=symmetric)
    (quant_bn1): QuantBn(
      (bn): BatchNorm2d(32, eps=1e-05, momentum=0.99, affine=True, track_running_stats=True)
    )
    (quant_act1): QuantAct(activation_bit=4, full_precision_flag=False, quant_mode=asymmetric, Act_min: 0.00, Act_max: 0.00)
    (quant_conv2): (QuantConv2d(
      (conv): Conv2d(32, 32, kernel_size=(3, 3), stride=(1, 1), padding=(1, 1), bias=False)
    ) weight_bit=4, full_precision_flag=False, quant_mode=symmetric)
    (quant_bn2): QuantBn(
      (bn): BatchNorm2d(32, eps=1e-05, momentum=0.99, affine=True, track_running_stats=True)
    )
    (quant_identity_conv): (QuantConv2d(
      (conv): Conv2d(16, 32, kernel_size=(1, 1), stride=(2, 2), bias=False)
    ) weight_bit=4, full_precision_flag=False, quant_mode=symmetric)
    (quant_identity_bn): QuantBn(
      (bn): BatchNorm2d(32, eps=1e-05, momentum=0.99, affine=True, track_running_stats=True)
    )
    (quant_act_int32): QuantAct(activation_bit=16, full_precision_flag=False, quant_mode=symmetric, Act_min: 0.00, Act_max: 0.00)
  )
  (stage2.unit2): Q_ResBlockBn_unfold(
    (quant_act): QuantAct(activation_bit=4, full_precision_flag=False, quant_mode=asymmetric, Act_min: 0.00, Act_max: 0.00)
    (quant_conv1): (QuantConv2d(
      (conv): Conv2d(32, 32, kernel_size=(3, 3), stride=(1, 1), padding=(1, 1), bias=False)
    ) weight_bit=4, full_precision_flag=False, quant_mode=symmetric)
    (quant_bn1): QuantBn(
      (bn): BatchNorm2d(32, eps=1e-05, momentum=0.99, affine=True, track_running_stats=True)
    )
    (quant_act1): QuantAct(activation_bit=4, full_precision_flag=False, quant_mode=asymmetric, Act_min: 0.00, Act_max: 0.00)
    (quant_conv2): (QuantConv2d(
      (conv): Conv2d(32, 32, kernel_size=(3, 3), stride=(1, 1), padding=(1, 1), bias=False)
    ) weight_bit=4, full_precision_flag=False, quant_mode=symmetric)
    (quant_bn2): QuantBn(
      (bn): BatchNorm2d(32, eps=1e-05, momentum=0.99, affine=True, track_running_stats=True)
    )
    (quant_act_int32): QuantAct(activation_bit=16, full_precision_flag=False, quant_mode=symmetric, Act_min: 0.00, Act_max: 0.00)
  )
  (stage2.unit3): Q_ResBlockBn_unfold(
    (quant_act): QuantAct(activation_bit=4, full_precision_flag=False, quant_mode=asymmetric, Act_min: 0.00, Act_max: 0.00)
    (quant_conv1): (QuantConv2d(
      (conv): Conv2d(32, 32, kernel_size=(3, 3), stride=(1, 1), padding=(1, 1), bias=False)
    ) weight_bit=4, full_precision_flag=False, quant_mode=symmetric)
    (quant_bn1): QuantBn(
      (bn): BatchNorm2d(32, eps=1e-05, momentum=0.99, affine=True, track_running_stats=True)
    )
    (quant_act1): QuantAct(activation_bit=4, full_precision_flag=False, quant_mode=asymmetric, Act_min: 0.00, Act_max: 0.00)
    (quant_conv2): (QuantConv2d(
      (conv): Conv2d(32, 32, kernel_size=(3, 3), stride=(1, 1), padding=(1, 1), bias=False)
    ) weight_bit=4, full_precision_flag=False, quant_mode=symmetric)
    (quant_bn2): QuantBn(
      (bn): BatchNorm2d(32, eps=1e-05, momentum=0.99, affine=True, track_running_stats=True)
    )
    (quant_act_int32): QuantAct(activation_bit=16, full_precision_flag=False, quant_mode=symmetric, Act_min: 0.00, Act_max: 0.00)
  )
  (stage3.unit1): Q_ResBlockBn_unfold(
    (quant_act): QuantAct(activation_bit=4, full_precision_flag=False, quant_mode=asymmetric, Act_min: 0.00, Act_max: 0.00)
    (quant_conv1): (QuantConv2d(
      (conv): Conv2d(32, 64, kernel_size=(3, 3), stride=(2, 2), padding=(1, 1), bias=False)
    ) weight_bit=4, full_precision_flag=False, quant_mode=symmetric)
    (quant_bn1): QuantBn(
      (bn): BatchNorm2d(64, eps=1e-05, momentum=0.99, affine=True, track_running_stats=True)
    )
    (quant_act1): QuantAct(activation_bit=4, full_precision_flag=False, quant_mode=asymmetric, Act_min: 0.00, Act_max: 0.00)
    (quant_conv2): (QuantConv2d(
      (conv): Conv2d(64, 64, kernel_size=(3, 3), stride=(1, 1), padding=(1, 1), bias=False)
    ) weight_bit=4, full_precision_flag=False, quant_mode=symmetric)
    (quant_bn2): QuantBn(
      (bn): BatchNorm2d(64, eps=1e-05, momentum=0.99, affine=True, track_running_stats=True)
    )
    (quant_identity_conv): (QuantConv2d(
      (conv): Conv2d(32, 64, kernel_size=(1, 1), stride=(2, 2), bias=False)
    ) weight_bit=4, full_precision_flag=False, quant_mode=symmetric)
    (quant_identity_bn): QuantBn(
      (bn): BatchNorm2d(64, eps=1e-05, momentum=0.99, affine=True, track_running_stats=True)
    )
    (quant_act_int32): QuantAct(activation_bit=16, full_precision_flag=False, quant_mode=symmetric, Act_min: 0.00, Act_max: 0.00)
  )
  (stage3.unit2): Q_ResBlockBn_unfold(
    (quant_act): QuantAct(activation_bit=4, full_precision_flag=False, quant_mode=asymmetric, Act_min: 0.00, Act_max: 0.00)
    (quant_conv1): (QuantConv2d(
      (conv): Conv2d(64, 64, kernel_size=(3, 3), stride=(1, 1), padding=(1, 1), bias=False)
    ) weight_bit=4, full_precision_flag=False, quant_mode=symmetric)
    (quant_bn1): QuantBn(
      (bn): BatchNorm2d(64, eps=1e-05, momentum=0.99, affine=True, track_running_stats=True)
    )
    (quant_act1): QuantAct(activation_bit=4, full_precision_flag=False, quant_mode=asymmetric, Act_min: 0.00, Act_max: 0.00)
    (quant_conv2): (QuantConv2d(
      (conv): Conv2d(64, 64, kernel_size=(3, 3), stride=(1, 1), padding=(1, 1), bias=False)
    ) weight_bit=4, full_precision_flag=False, quant_mode=symmetric)
    (quant_bn2): QuantBn(
      (bn): BatchNorm2d(64, eps=1e-05, momentum=0.99, affine=True, track_running_stats=True)
    )
    (quant_act_int32): QuantAct(activation_bit=16, full_precision_flag=False, quant_mode=symmetric, Act_min: 0.00, Act_max: 0.00)
  )
  (stage3.unit3): Q_ResBlockBn_unfold(
    (quant_act): QuantAct(activation_bit=4, full_precision_flag=False, quant_mode=asymmetric, Act_min: 0.00, Act_max: 0.00)
    (quant_conv1): (QuantConv2d(
      (conv): Conv2d(64, 64, kernel_size=(3, 3), stride=(1, 1), padding=(1, 1), bias=False)
    ) weight_bit=4, full_precision_flag=False, quant_mode=symmetric)
    (quant_bn1): QuantBn(
      (bn): BatchNorm2d(64, eps=1e-05, momentum=0.99, affine=True, track_running_stats=True)
    )
    (quant_act1): QuantAct(activation_bit=4, full_precision_flag=False, quant_mode=asymmetric, Act_min: 0.00, Act_max: 0.00)
    (quant_conv2): (QuantConv2d(
      (conv): Conv2d(64, 64, kernel_size=(3, 3), stride=(1, 1), padding=(1, 1), bias=False)
    ) weight_bit=4, full_precision_flag=False, quant_mode=symmetric)
    (quant_bn2): QuantBn(
      (bn): BatchNorm2d(64, eps=1e-05, momentum=0.99, affine=True, track_running_stats=True)
    )
    (quant_act_int32): QuantAct(activation_bit=16, full_precision_flag=False, quant_mode=symmetric, Act_min: 0.00, Act_max: 0.00)
  )
  (final_pool): QuantAveragePool2d(
    (final_pool): AvgPool2d(kernel_size=8, stride=1, padding=0)
  )
  (quant_act_output): QuantAct(activation_bit=8, full_precision_flag=False, quant_mode=symmetric, Act_min: 0.00, Act_max: 0.00)
…
